…
b_size, embedding_dim, input_length=maxlen)) model.add(layers.Conv1D(128, 5, activation=&#39;relu&#39;)) model.add(layers.GlobalMaxPooling1D()) model.add(layers.Dense(10, activation=&#39;relu&#39;)) model.add(layers.Dense(1, activation=&#39;sigmoid&#39;)) model.compile(optimizer=&#39;adam&#39;, loss=&#39;binary_crossentropy&#39;, metrics=[&#39;accuracy&#39;]) model.summary() . Model: &#34;sequential_3&#34; _________________________________________________________________ Layer (type) Output Shape Param # ================================================================= embedding_2 (Embedding) (None, 100, 100) 257500 conv1d (Conv1D) (None, 96, 128) 64128 global_max_pooling1d_1 (Glo (None, 128) 0 balMaxPooling1D) dense_6 (Dense) (None, 10) 1290 dense_7 (Dense) (None, 1) 11 ================================================================= Total params: 322,929 Trainable params: 322,929 Non-trainable params: 0 _________________________________________________________________ . history = model.fit(X_train, y_train, epochs=10, verbose=False, validation_data=(X_test, y_test), batch_size=10) loss, accuracy = model.evaluate(X_train, y_train, verbose=False) print(&quot;Tra
…
